[2023-12-01 08:25:07,883][base_learner.py][line: 333][    INFO] [RANK0]: DI-engine DRL Policy
SMACACE(
  (_action_encoder): Sequential(
    (0): Linear(in_features=1024, out_features=256, bias=True)
    (1): ReLU(inplace=True)
    (2): Linear(in_features=256, out_features=512, bias=True)
    (3): ReLU(inplace=True)
  )
  (_state_encoder): Sequential(
    (0): Linear(in_features=34, out_features=256, bias=True)
    (1): ReLU(inplace=True)
    (2): Linear(in_features=256, out_features=256, bias=True)
    (3): ReLU(inplace=True)
  )
  (_relation_encoder): Sequential(
    (0): Linear(in_features=262, out_features=256, bias=True)
    (1): ReLU(inplace=True)
    (2): Linear(in_features=256, out_features=512, bias=True)
    (3): ReLU(inplace=True)
  )
  (_relation_aggregator): RelationAggregator(
    (_state_encoder): Sequential(
      (0): Linear(in_features=768, out_features=256, bias=True)
      (1): ReLU(inplace=True)
    )
  )
  (_decision_encoder): DecisionEncoder(
    (_decision_encoder): Sequential(
      (0): Linear(in_features=256, out_features=256, bias=True)
      (1): ReLU(inplace=True)
      (2): Linear(in_features=256, out_features=512, bias=True)
      (3): ReLU(inplace=True)
    )
    (_logit_encoder): Sequential(
      (0): Linear(in_features=512, out_features=256, bias=True)
      (1): ReLU(inplace=True)
      (2): Linear(in_features=256, out_features=1, bias=True)
    )
  )
  (_local_predictor): Sequential(
    (0): Linear(in_features=256, out_features=128, bias=True)
    (1): ReLU(inplace=True)
    (2): Linear(in_features=128, out_features=6, bias=True)
  )
  (_global_predictor): Sequential(
    (0): Linear(in_features=512, out_features=256, bias=True)
    (1): ReLU(inplace=True)
    (2): Linear(in_features=256, out_features=12, bias=True)
  )
)
[2023-12-01 09:17:09,388][base_learner.py][line: 333][    INFO] [RANK0]: DI-engine DRL Policy
SMACACE(
  (_action_encoder): Sequential(
    (0): Linear(in_features=1024, out_features=256, bias=True)
    (1): ReLU(inplace=True)
    (2): Linear(in_features=256, out_features=512, bias=True)
    (3): ReLU(inplace=True)
  )
  (_state_encoder): Sequential(
    (0): Linear(in_features=34, out_features=256, bias=True)
    (1): ReLU(inplace=True)
    (2): Linear(in_features=256, out_features=256, bias=True)
    (3): ReLU(inplace=True)
  )
  (_relation_encoder): Sequential(
    (0): Linear(in_features=262, out_features=256, bias=True)
    (1): ReLU(inplace=True)
    (2): Linear(in_features=256, out_features=512, bias=True)
    (3): ReLU(inplace=True)
  )
  (_relation_aggregator): RelationAggregator(
    (_state_encoder): Sequential(
      (0): Linear(in_features=768, out_features=256, bias=True)
      (1): ReLU(inplace=True)
    )
  )
  (_decision_encoder): DecisionEncoder(
    (_decision_encoder): Sequential(
      (0): Linear(in_features=256, out_features=256, bias=True)
      (1): ReLU(inplace=True)
      (2): Linear(in_features=256, out_features=512, bias=True)
      (3): ReLU(inplace=True)
    )
    (_logit_encoder): Sequential(
      (0): Linear(in_features=512, out_features=256, bias=True)
      (1): ReLU(inplace=True)
      (2): Linear(in_features=256, out_features=1, bias=True)
    )
  )
  (_local_predictor): Sequential(
    (0): Linear(in_features=256, out_features=128, bias=True)
    (1): ReLU(inplace=True)
    (2): Linear(in_features=128, out_features=6, bias=True)
  )
  (_global_predictor): Sequential(
    (0): Linear(in_features=512, out_features=256, bias=True)
    (1): ReLU(inplace=True)
    (2): Linear(in_features=256, out_features=12, bias=True)
  )
)
[2023-12-01 09:19:12,039][base_learner.py][line: 333][    INFO] [RANK0]: DI-engine DRL Policy
SMACACE(
  (_action_encoder): Sequential(
    (0): Linear(in_features=1024, out_features=256, bias=True)
    (1): ReLU(inplace=True)
    (2): Linear(in_features=256, out_features=512, bias=True)
    (3): ReLU(inplace=True)
  )
  (_state_encoder): Sequential(
    (0): Linear(in_features=34, out_features=256, bias=True)
    (1): ReLU(inplace=True)
    (2): Linear(in_features=256, out_features=256, bias=True)
    (3): ReLU(inplace=True)
  )
  (_relation_encoder): Sequential(
    (0): Linear(in_features=262, out_features=256, bias=True)
    (1): ReLU(inplace=True)
    (2): Linear(in_features=256, out_features=512, bias=True)
    (3): ReLU(inplace=True)
  )
  (_relation_aggregator): RelationAggregator(
    (_state_encoder): Sequential(
      (0): Linear(in_features=768, out_features=256, bias=True)
      (1): ReLU(inplace=True)
    )
  )
  (_decision_encoder): DecisionEncoder(
    (_decision_encoder): Sequential(
      (0): Linear(in_features=256, out_features=256, bias=True)
      (1): ReLU(inplace=True)
      (2): Linear(in_features=256, out_features=512, bias=True)
      (3): ReLU(inplace=True)
    )
    (_logit_encoder): Sequential(
      (0): Linear(in_features=512, out_features=256, bias=True)
      (1): ReLU(inplace=True)
      (2): Linear(in_features=256, out_features=1, bias=True)
    )
  )
  (_local_predictor): Sequential(
    (0): Linear(in_features=256, out_features=128, bias=True)
    (1): ReLU(inplace=True)
    (2): Linear(in_features=128, out_features=6, bias=True)
  )
  (_global_predictor): Sequential(
    (0): Linear(in_features=512, out_features=256, bias=True)
    (1): ReLU(inplace=True)
    (2): Linear(in_features=256, out_features=12, bias=True)
  )
)
[2023-12-01 09:20:52,793][base_learner.py][line: 333][    INFO] [RANK0]: DI-engine DRL Policy
SMACACE(
  (_action_encoder): Sequential(
    (0): Linear(in_features=1024, out_features=256, bias=True)
    (1): ReLU(inplace=True)
    (2): Linear(in_features=256, out_features=512, bias=True)
    (3): ReLU(inplace=True)
  )
  (_state_encoder): Sequential(
    (0): Linear(in_features=34, out_features=256, bias=True)
    (1): ReLU(inplace=True)
    (2): Linear(in_features=256, out_features=256, bias=True)
    (3): ReLU(inplace=True)
  )
  (_relation_encoder): Sequential(
    (0): Linear(in_features=262, out_features=256, bias=True)
    (1): ReLU(inplace=True)
    (2): Linear(in_features=256, out_features=512, bias=True)
    (3): ReLU(inplace=True)
  )
  (_relation_aggregator): RelationAggregator(
    (_state_encoder): Sequential(
      (0): Linear(in_features=768, out_features=256, bias=True)
      (1): ReLU(inplace=True)
    )
  )
  (_decision_encoder): DecisionEncoder(
    (_decision_encoder): Sequential(
      (0): Linear(in_features=256, out_features=256, bias=True)
      (1): ReLU(inplace=True)
      (2): Linear(in_features=256, out_features=512, bias=True)
      (3): ReLU(inplace=True)
    )
    (_logit_encoder): Sequential(
      (0): Linear(in_features=512, out_features=256, bias=True)
      (1): ReLU(inplace=True)
      (2): Linear(in_features=256, out_features=1, bias=True)
    )
  )
  (_local_predictor): Sequential(
    (0): Linear(in_features=256, out_features=128, bias=True)
    (1): ReLU(inplace=True)
    (2): Linear(in_features=128, out_features=6, bias=True)
  )
  (_global_predictor): Sequential(
    (0): Linear(in_features=512, out_features=256, bias=True)
    (1): ReLU(inplace=True)
    (2): Linear(in_features=256, out_features=12, bias=True)
  )
)
[2023-12-01 09:25:19,463][base_learner.py][line: 333][    INFO] [RANK0]: DI-engine DRL Policy
SMACACE(
  (_action_encoder): Sequential(
    (0): Linear(in_features=1024, out_features=256, bias=True)
    (1): ReLU(inplace=True)
    (2): Linear(in_features=256, out_features=512, bias=True)
    (3): ReLU(inplace=True)
  )
  (_state_encoder): Sequential(
    (0): Linear(in_features=34, out_features=256, bias=True)
    (1): ReLU(inplace=True)
    (2): Linear(in_features=256, out_features=256, bias=True)
    (3): ReLU(inplace=True)
  )
  (_relation_encoder): Sequential(
    (0): Linear(in_features=262, out_features=256, bias=True)
    (1): ReLU(inplace=True)
    (2): Linear(in_features=256, out_features=512, bias=True)
    (3): ReLU(inplace=True)
  )
  (_relation_aggregator): RelationAggregator(
    (_state_encoder): Sequential(
      (0): Linear(in_features=768, out_features=256, bias=True)
      (1): ReLU(inplace=True)
    )
  )
  (_decision_encoder): DecisionEncoder(
    (_decision_encoder): Sequential(
      (0): Linear(in_features=256, out_features=256, bias=True)
      (1): ReLU(inplace=True)
      (2): Linear(in_features=256, out_features=512, bias=True)
      (3): ReLU(inplace=True)
    )
    (_logit_encoder): Sequential(
      (0): Linear(in_features=512, out_features=256, bias=True)
      (1): ReLU(inplace=True)
      (2): Linear(in_features=256, out_features=1, bias=True)
    )
  )
  (_local_predictor): Sequential(
    (0): Linear(in_features=256, out_features=128, bias=True)
    (1): ReLU(inplace=True)
    (2): Linear(in_features=128, out_features=6, bias=True)
  )
  (_global_predictor): Sequential(
    (0): Linear(in_features=512, out_features=256, bias=True)
    (1): ReLU(inplace=True)
    (2): Linear(in_features=256, out_features=12, bias=True)
  )
)
[2023-12-01 09:25:51,939][base_learner.py][line: 333][    INFO] [RANK0]: === Training Iteration 0 Result ===
[2023-12-01 09:25:51,940][learner_hook.py][line: 224][    INFO] 
+-------+----------+----------+-------------+--------------+-----------+---------------+---------------------+
| Name  | lr_avg   | loss_avg | rl_loss_avg | aux_loss_avg | q_avg     | grad_norm_avg | aux_loss_weight_avg |
+-------+----------+----------+-------------+--------------+-----------+---------------+---------------------+
| Value | 0.000300 | 5.693444 | 1.000845    | 0.469260     | -0.018896 | 4.375755      | 10.000000           |
+-------+----------+----------+-------------+--------------+-----------+---------------+---------------------+
[2023-12-01 09:25:51,972][base_learner.py][line: 333][    INFO] [RANK0]: learner save ckpt in ./seed0/ckpt/iteration_0.pth.tar
[2023-12-01 09:29:50,712][base_learner.py][line: 333][    INFO] [RANK0]: DI-engine DRL Policy
SMACACE(
  (_action_encoder): Sequential(
    (0): Linear(in_features=1024, out_features=256, bias=True)
    (1): ReLU(inplace=True)
    (2): Linear(in_features=256, out_features=512, bias=True)
    (3): ReLU(inplace=True)
  )
  (_state_encoder): Sequential(
    (0): Linear(in_features=33, out_features=256, bias=True)
    (1): ReLU(inplace=True)
    (2): Linear(in_features=256, out_features=256, bias=True)
    (3): ReLU(inplace=True)
  )
  (_relation_encoder): Sequential(
    (0): Linear(in_features=262, out_features=256, bias=True)
    (1): ReLU(inplace=True)
    (2): Linear(in_features=256, out_features=512, bias=True)
    (3): ReLU(inplace=True)
  )
  (_relation_aggregator): RelationAggregator(
    (_state_encoder): Sequential(
      (0): Linear(in_features=768, out_features=256, bias=True)
      (1): ReLU(inplace=True)
    )
  )
  (_decision_encoder): DecisionEncoder(
    (_decision_encoder): Sequential(
      (0): Linear(in_features=256, out_features=256, bias=True)
      (1): ReLU(inplace=True)
      (2): Linear(in_features=256, out_features=512, bias=True)
      (3): ReLU(inplace=True)
    )
    (_logit_encoder): Sequential(
      (0): Linear(in_features=512, out_features=256, bias=True)
      (1): ReLU(inplace=True)
      (2): Linear(in_features=256, out_features=1, bias=True)
    )
  )
  (_local_predictor): Sequential(
    (0): Linear(in_features=256, out_features=128, bias=True)
    (1): ReLU(inplace=True)
    (2): Linear(in_features=128, out_features=6, bias=True)
  )
  (_global_predictor): Sequential(
    (0): Linear(in_features=512, out_features=256, bias=True)
    (1): ReLU(inplace=True)
    (2): Linear(in_features=256, out_features=12, bias=True)
  )
)
[2023-12-01 09:30:20,779][base_learner.py][line: 333][    INFO] [RANK0]: === Training Iteration 0 Result ===
[2023-12-01 09:30:20,779][learner_hook.py][line: 224][    INFO] 
+-------+----------+----------+-------------+--------------+----------+---------------+---------------------+
| Name  | lr_avg   | loss_avg | rl_loss_avg | aux_loss_avg | q_avg    | grad_norm_avg | aux_loss_weight_avg |
…
| Name  | lr_avg   | loss_avg | rl_loss_avg | aux_loss_avg | q_avg    | grad_norm_avg | aux_loss_weight_avg |
+-------+----------+----------+-------------+--------------+----------+---------------+---------------------+
| Value | 0.000300 | 2.192522 | 0.030585    | 0.216194     | 0.059089 | 2.525485      | 10.000000           |
+-------+----------+----------+-------------+--------------+----------+---------------+---------------------+
[2023-12-05 07:04:09,328][base_learner.py][line: 333][    INFO] [RANK0]: learner save ckpt in ./seed0/ckpt/iteration_0.pth.tar
[2023-12-07 07:21:50,142][base_learner.py][line: 333][    INFO] [RANK0]: DI-engine DRL Policy
SMACACE(
  (_action_encoder): Sequential(
    (0): Linear(in_features=1024, out_features=256, bias=True)
    (1): ReLU(inplace=True)
    (2): Linear(in_features=256, out_features=512, bias=True)
    (3): ReLU(inplace=True)
  )
  (_state_encoder): Sequential(
    (0): Linear(in_features=33, out_features=256, bias=True)
    (1): ReLU(inplace=True)
    (2): Linear(in_features=256, out_features=256, bias=True)
    (3): ReLU(inplace=True)
  )
  (_relation_encoder): Sequential(
    (0): Linear(in_features=262, out_features=256, bias=True)
    (1): ReLU(inplace=True)
    (2): Linear(in_features=256, out_features=512, bias=True)
    (3): ReLU(inplace=True)
  )
  (_relation_aggregator): RelationAggregator(
    (_state_encoder): Sequential(
      (0): Linear(in_features=768, out_features=256, bias=True)
      (1): ReLU(inplace=True)
    )
  )
  (_decision_encoder): DecisionEncoder(
    (_decision_encoder): Sequential(
      (0): Linear(in_features=256, out_features=256, bias=True)
      (1): ReLU(inplace=True)
      (2): Linear(in_features=256, out_features=512, bias=True)
      (3): ReLU(inplace=True)
    )
    (_logit_encoder): Sequential(
      (0): Linear(in_features=512, out_features=256, bias=True)
      (1): ReLU(inplace=True)
      (2): Linear(in_features=256, out_features=1, bias=True)
    )
  )
  (_local_predictor): Sequential(
    (0): Linear(in_features=256, out_features=128, bias=True)
    (1): ReLU(inplace=True)
    (2): Linear(in_features=128, out_features=6, bias=True)
  )
  (_global_predictor): Sequential(
    (0): Linear(in_features=512, out_features=256, bias=True)
    (1): ReLU(inplace=True)
    (2): Linear(in_features=256, out_features=12, bias=True)
  )
)
[2023-12-07 07:22:40,416][base_learner.py][line: 333][    INFO] [RANK0]: DI-engine DRL Policy
SMACACE(
  (_action_encoder): Sequential(
    (0): Linear(in_features=1024, out_features=256, bias=True)
    (1): ReLU(inplace=True)
    (2): Linear(in_features=256, out_features=512, bias=True)
    (3): ReLU(inplace=True)
  )
  (_state_encoder): Sequential(
    (0): Linear(in_features=33, out_features=256, bias=True)
    (1): ReLU(inplace=True)
    (2): Linear(in_features=256, out_features=256, bias=True)
    (3): ReLU(inplace=True)
  )
  (_relation_encoder): Sequential(
    (0): Linear(in_features=262, out_features=256, bias=True)
    (1): ReLU(inplace=True)
    (2): Linear(in_features=256, out_features=512, bias=True)
    (3): ReLU(inplace=True)
  )
  (_relation_aggregator): RelationAggregator(
    (_state_encoder): Sequential(
      (0): Linear(in_features=768, out_features=256, bias=True)
      (1): ReLU(inplace=True)
    )
  )
  (_decision_encoder): DecisionEncoder(
    (_decision_encoder): Sequential(
      (0): Linear(in_features=256, out_features=256, bias=True)
      (1): ReLU(inplace=True)
      (2): Linear(in_features=256, out_features=512, bias=True)
      (3): ReLU(inplace=True)
    )
    (_logit_encoder): Sequential(
      (0): Linear(in_features=512, out_features=256, bias=True)
      (1): ReLU(inplace=True)
      (2): Linear(in_features=256, out_features=1, bias=True)
    )
  )
  (_local_predictor): Sequential(
    (0): Linear(in_features=256, out_features=128, bias=True)
    (1): ReLU(inplace=True)
    (2): Linear(in_features=128, out_features=6, bias=True)
  )
  (_global_predictor): Sequential(
    (0): Linear(in_features=512, out_features=256, bias=True)
    (1): ReLU(inplace=True)
    (2): Linear(in_features=256, out_features=12, bias=True)
  )
)
[2023-12-07 07:23:17,090][base_learner.py][line: 333][    INFO] [RANK0]: === Training Iteration 0 Result ===
[2023-12-07 07:23:17,091][learner_hook.py][line: 224][    INFO] 
+-------+----------+----------+-------------+--------------+----------+---------------+---------------------+
| Name  | lr_avg   | loss_avg | rl_loss_avg | aux_loss_avg | q_avg    | grad_norm_avg | aux_loss_weight_avg |
…
